backend/test/selective_lstm_models/best_model.pth (torch, 593974 bytes, 22 tensors)

lstm.weight_ih_l0 f4 [256, 3]
0.07135925 0.01970377 0.0013621169 0.116666414 0.027098063 -0.013673769 -0.020855471 -0.032076027
0.055472586 -0.06863544 0.106097564 0.11022703 -0.015570625 0.00927643 0.021857597 -0.080394566
0.01509983 0.15541776 -0.04465032 -0.053563446 -0.062870905 -0.09671268 0.073083095 0.016212933
-0.023536438 -0.0059245555 0.101568654 -0.06196249 0.016687376 -0.0020461315 0.063095674 0.09500078
0.081314266 0.053951517 0.048171848 0.055608314 0.06488903 -0.036597632 0.07070218 0.025843645
-0.09259365 0.1319585 -0.017908541 -0.025061341 -0.022432934 -0.02516681 0.12908097 -0.008866055
-0.021273635 -0.016582308 -0.052743673 0.047242522 -0.047846336 0.07975952 0.085739635 0.08083846
0.13097751 0.065289706 -0.12120072 0.059539307 -0.07897639 0.043929867 -0.019449826 0.059300605
0.12526755 0.09534393 0.03976379 0.104013816 0.11008569 0.13862671 0.04789066 -0.027903097
0.14948767 -0.04688463 0.06073232 -0.08685229 -0.06319318 -0.076704904 -0.026266878 -0.099100545
-0.07968271 0.04686891 0.030824974 -0.022431321 0.029843671 0.0889081 -0.05383334 0.03187838
0.044538494 -0.019839955 0.12411222 -0.08534748 -0.08128234 0.10458096 0.03312148 0.061661385
-0.08152128 -0.084600896 0.11784252 0.02195554 -0.007975692 0.057040263 0.017879454 0.14092599
0.012346674 -0.057405014 -0.026183633 0.03841062 -0.032297347 0.09252015 0.14063376 -0.062001877
-0.005631063 0.042994265 -0.061085567 0.061868783 -0.10145043 0.1110258 0.0649464 0.0779282
0.10419617 0.044147324 0.10826398 0.013615941 0.1192971 0.070780754 0.071308084 0.04351936
0.022659644 0.06806844 0.06385701 0.051878005 0.05465458 0.046202637 -0.07104554 0.046556797
0.13522692 -0.0031695215 -0.08796814 0.050077133 -0.04926632 0.078406 0.0055094766 0.091251895
0.03870816 0.07480867 -0.08456102 0.08293074 -0.00403752 0.034038395 0.1304637 -0.05607633
0.12312953 0.08216894 -0.07534103 0.030638345 -0.08663302 0.07369469 0.016640544 -0.096442476
-0.0684559 -0.060364686 0.036664806 0.12899147 0.13521768 0.14965245 0.0016429283 0.1494131
0.1232364 0.08991924 0.011353374 0.05917823 0.09556046 0.07715814 0.082979664 0.0400289
-0.07364236 -0.0751381 0.060830545 -0.09287725 -0.08909361 0.0052219024 0.11027203 0.0395313
-0.09498326 0.14123675 0.07707738 -0.106948905 -0.059272226 -0.08078085 -0.01762111 -0.07330507
-0.081885464 0.12185649 0.07428511 0.01892541 0.017672988 0.12448969 -0.13516831 0.025614517
-0.08301183 -0.05338793 -0.065710895 0.059574906 0.08845194 -0.029684983 -0.0066940896 -0.019380972
0.07402385 0.14432898 0.052389722 0.10095105 0.08791785 0.010733519 0.01889094 -0.023477657
0.019744491 0.1199904 0.042446923 -0.05670213 -0.093843095 -0.056643818 0.066732645 0.037164554
-0.021285564 -0.012969535 -0.03060193 0.03682638 0.036578074 0.07335053 -0.016480472 0.09872909
0.09950258 -0.010315145 -0.027783647 0.0069171297 -0.09051786 0.08492878 0.0026839578 0.11054243
-0.07257992 -0.025524532 -0.08982202 -0.06855497 0.017979397 0.054586504 -0.07298642 -0.07901747
0.078277715 -0.07256375 0.10672899 -0.013150263 -0.02127149 -0.073129065 0.076881655 -0.051160596
00000000: cc24 923d cd69 a13c 0f89 b23a cdee ee3d
00000010: c2fc dd3c f207 60bc 18d9 aabc 2762 03bd
00000020: 3937 633d bd90 8cbd ae49 d93d b6be e13d
00000030: ef1b 7fbc 2bfc 173c b40e b33c e8a5 a4bd
00000040: 4765 773c d525 1f3e 41e3 36bd 5865 5bbd
00000050: 76c2 80bd 4c11 c6bd 97ac 953d fcd0 843c
00000060: 7dcf c0bc c622 c2bb 3a03 d03d 61cc 7dbd
00000070: f7b3 883c 6418 06bb 4e38 813d c58f c23d
00000080: 1888 a63d 44fc 5c3d d84f 453d 8bc5 633d
00000090: 8ae4 843d 66e7 15bd 4ecc 903d 0db6 d33c
000000a0: bda1 bdbd 2120 073e efb4 92bc 714d cdbc
000000b0: 46c5 b7bc a02a cebc cd2d 043e ee42 11bc
000000c0: 0c46 aebc 9fd7 87bc c009 58bd 6081 413d
000000d0: 85fa 43bd f658 a33d 4398 af3d a28e a53d
000000e0: f81e 063e 9cb6 853d 1538 f8bd 7ddf 733d
000000f0: 60be a1bd ceef 333d 3e55 9fbc 31e5 723d
00000100: 2346 003e ae43 c33d 5bdf 223d 3205 d53d
00000110: 9b74 e13d 29f4 0d3e ff28 443d 0995 e4bc
00000120: 4c13 193e 190a 40bd 74c2 783d 9ddf b1bd
00000130: 6d6b 81bd 7617 9dbd a32d d7bc 3af5 cabd
00000140: b030 a3bd 9df9 3f3d a884 fc3c e4c1 b7bc
00000150: b77a f43c 7315 b63d 5980 5cbd e792 023d
00000160: ff6d 363d 6787 a2bc 8c2e fe3d a9ca aebd
00000170: 5b77 a6bd 8b2e d63d 64aa 073d a690 7c3d
00000180: a1f4 a6bd 3c43 adbd 6b57 f13d 1bdc b33c
00000190: 7aac 02bc 0da3 693d ef77 923c e74e 103e
000001a0: b449 4a3c 8521 6bbd 0f7f d6bc 7454 1d3d
000001b0: 394a 04bd 347b bd3d 4c02 103e aef5 7dbd
000001c0: c884 b8bb c11a 303d dc34 7abd 1f6a 7d3d
000001d0: 3ec5 cfbd 7f61 e33d 9e02 853d d298 9f3d
000001e0: cd64 d53d d3d3 343d 81b9 dd3d 6515 5f3c
000001f0: 0a52 f43d 80f5 903d f909 923d 5b41 323d
00000200: b8a0 b93c 7767 8b3d 77c7 823d 087e 543d
00000210: 7bdd 5f3d fa3e 3d3d 5380 91bd 57b2 3e3d
00000220: ed78 0a3e bfb7 4fbb a428 b4bd ae1d 4d3d
00000230: 7bcb 49bd 5393 a03d d788 b43b 46e2 ba3d
00000240: 738c 1e3d 4a35 993d 542e adbd 98d7 a93d
00000250: 2c4d 84bb d86b 0b3d 4798 053e 4bb0 65bd
00000260: 562b fc3d 3048 a83d 664c 9abd 44fd fa3c
00000270: a76c b1bd 3eed 963d c051 883c a283 c5bd
00000280: 9b32 8cbd f640 77bd d62d 163d 5716 043e
00000290: 8176 0a3e 7e3e 193e 8757 d73a bfff 183e
000002a0: 5e63 fc3d 9427 b83d 8103 3a3c df64 723d
000002b0: 34b5 c33d 1605 9e3d 3ef1 a93d 58f5 233d
000002c0: ced1 96bd 01e2 99bd 7329 793d 6d36 bebd
000002d0: b676 b6bd 7e1c ab3b 4dd6 e13d 93eb 213d
000002e0: 9586 c2bd 5ea0 103e bfda 9d3d 0708 dbbd
000002f0: 6fc7 72bd 6e70 a5bd 255a 90bc f820 96bd
00000300: 91b3 a7bd e58f f93d cb22 983d 7609 9b3c
00000310: f1c6 903c 73f4 fe3d 9069 0abe 89d5 d13c
00000320: 1b02 aabd 4dad 5abd 6f93 86bd d104 743d
00000330: 4a26 b53d ec2d f3bc 185a dbbb d8c4 9ebc
00000340: d199 973d faca 133e 9b96 563d 6dbf ce3d
00000350: 460e b43d a4db 2f3c 2cc1 9a3c 3754 c0bc
00000360: 33bf a13c 87bd f53d d3dc 2d3d 7e40 68bd
00000370: cf30 c0bd 5903 68bd 20ab 883d dc39 183d
00000380: 105f aebc 2c7e 54bc e6b0 fabc 42d7 163d
00000390: e4d2 153d cd38 963d 0e02 87bc 7a32 ca3d
000003a0: 02c8 cb3d db00 29bc 889a e3bc 17a9 e23b
000003b0: 6e61 b9bd 24ef ad3d 57e5 2f3b 1264 e23d
000003c0: c8a4 94bd d318 d1bc 9bf4 b7bd 8c66 8cbd
000003d0: 8749 933c 1996 5f3d e779 95bd e9d3 a1bd
000003e0: 1150 a03d 4e9c 94bd bb94 da3d 3374 57bc
000003f0: 8c41 aebc b1c4 95bd 2174 9d3d c68d 51bd

lstm.weight_hh_l0 f4 [256, 64]
-0.12772994 -0.003403373 0.07980797 -0.10575675 0.070727594 -0.030311132 0.031396475 -0.07335309
0.036549643 0.05168462 -0.038872752 -0.060873218 -0.012463536 -0.050550513 0.06576112 -0.04002859
-0.040369216 0.10388007 0.033562575 -0.08641546 -0.040565997 0.07876794 0.025880104 0.026109233
0.03703179 0.01044845 0.016023181 -0.007743641 0.1421328 0.016291944 -0.013207034 -0.08356315
-0.090406865 0.06104967 0.008932911 0.04688038 -0.014004349 -0.03920164 0.044898115 0.030970573
0.032762654 0.046706334 0.0061816066 -0.09584003 -0.034526598 -0.02269449 -0.05937555 -0.003223329
0.053087372 -0.10021438 -0.1010875 -0.0631932 -0.11320415 0.030832447 -0.0073585035 0.023998048
-0.054869365 0.13377678 -0.049654037 0.038963206 -0.023949737 -0.023879664 -0.004019655 0.029286118
-0.07708742 -0.05810183 -0.054372076 -0.12074455 0.03811985 0.0072386786 0.06389337 -0.088701166
-0.025337312 0.02796928 -0.10762641 0.052884184 0.017705737 0.045898482 -0.06598653 -0.07156694
0.0138517795 -0.039102234 0.006567486 -0.030939307 -0.08580795 -0.053110465 0.010848452 0.0052305376
-0.08300475 0.13643591 -0.024348918 -0.010505666 -0.046849374 -0.04667939 -0.061060987 0.13042676
-0.033510856 0.10657168 0.03540237 -0.13076141 0.12960908 -0.03543448 0.10044232 -0.008815731
-0.055311944 -0.0755842 -0.11679386 -0.00055980706 0.034042515 0.091055974 0.012767114 0.0751727
0.13106187 -0.038671874 0.1365708 0.12704723 0.09180536 -0.047729272 -0.08730906 -0.074211344
0.044030666 0.04914184 0.009461875 -0.059410866 0.06944866 0.0932542 0.05298962 -0.0030297018
0.07055723 0.027779924 0.08521895 -0.045908544 0.06322445 0.050327476 -0.10893973 0.037575018
-0.06091367 0.08715123 -0.078547284 0.10784054 -0.11461615 -0.12242815 -0.035248604 0.044371422
0.062289096 -0.071660236 0.1143584 -0.113977544 0.051797114 -0.1288762 0.12416375 0.016087072
-0.09927698 -0.062180094 0.11183256 -0.0034023868 0.03840495 -0.06077228 0.002693382 -0.13759062
-0.017464686 0.039029013 -0.016886946 -0.016450904 0.04759646 -0.06357115 0.048687954 0.009965242
-0.05931949 -0.0029104403 0.00913581 0.026866121 -0.099390395 -0.070783824 -0.07856063 0.116906665
0.06538086 0.058032878 -0.04450027 -0.023466302 0.09606787 -0.0461798 0.11829164 0.093783416
-0.02085455 0.045168232 0.08047013 0.04145714 0.13230714 -0.10381214 0.13117084 0.03157732
-0.08639533 -0.09552337 -0.06748355 -0.11356189 0.046509054 0.10495167 -0.11688459 0.119051464
0.104423515 -0.05748722 -0.045683056 -0.02644448 -0.11943612 0.010211825 0.029991338 0.09020181
0.019407058 0.031625323 -0.04260435 -0.11477409 0.045314036 0.03462385 0.103312925 0.08091203
-0.028438313 -0.12381732 0.08697539 -0.08302971 -0.08761423 -0.12622538 -0.059034996 0.0008472732
-0.10770142 -0.12299389 0.005429317 0.06641376 -0.06675094 0.1219015 -0.045317393 0.057388984
-0.084531374 -0.059540555 0.115389876 0.053973563 0.014624084 -0.033868384 -0.10126076 -0.09415414
0.10942651 0.09750738 -0.041416533 0.09459046 0.06933824 0.05338686 -0.047779817 0.086701944
0.06744724 -0.02311417 -0.009067377 -0.04692631 0.035025284 -0.0059816153 -0.009907248 0.078692086
00000000: a3cb 02be 200b 5fbb 5c72 a33d ff96 d8bd
00000010: a1d9 903d 0d4f f8bc 9799 003d 253a 96bd
00000020: 14b5 153d 41b3 533d 0939 1fbd 3256 79bd
00000030: dc33 4cbc 0e0e 4fbd c4ad 863d 05f5 23bd
00000040: 315a 25bd 13bf d43d e978 093d 97fa b0bd
00000050: 8828 26bd 1651 a13d 8302 d43c 08e3 d53c
00000060: a5ae 173d fa2f 2b3c 0c43 833c 5ebe fdbb
00000070: 438b 113e af76 853c 5162 58bc 2823 abbd
00000080: 3c27 b9bd 380f 7a3d 585b 123c a405 403d
00000090: 7f72 65bc e691 20bd 16e7 373d 00b6 fd3c
000000a0: 2232 063d 244f 3f3d 138f ca3b c747 c4bd
000000b0: c36b 0dbd cce9 b9bc c733 73bd 7d3e 53bb
000000c0: 2572 593d 323d cdbd f706 cfbd 706b 81bd
000000d0: 94d7 e7bd 5494 fc3c 9a1f f1bb 8e97 c43c
000000e0: b3be 60bd c8fc 083e 0862 4bbd e297 1f3d
000000f0: 3d32 c4bc 499f c3bc 4fb7 83bb 71e9 ef3c
00000100: 02e0 9dbd 2ffc 6dbd 41b5 5ebd eb48 f7bd
00000110: 8f23 1c3d 7032 ed3b 87da 823d f5a8 b5bd
00000120: 3290 cfbc d51f e53c 3c6b dcbd 169d 583d
00000130: 9f0b 913c 0c00 3c3d f223 87bd b091 92bd
00000140: 93f2 623c aa29 20bd 1134 d73b 6e74 fdbc
00000150: 14bc afbd 5c8a 59bd b5bd 313c ee64 ab3b
00000160: 65fe a9bd dbb5 0b3e 6277 c7bc f51f 2cbc
00000170: 21e5 3fbd e332 3fbd 161b 7abd 988e 053e
00000180: ae42 09bd 4142 da3d 1302 113d 52e6 05be
00000190: 3eb8 043e bf23 11bd b4b4 cd3d db6f 10bc
000001a0: c78e 62bd e4cb 9abd 9f31 efbd 04c0 12ba
000001b0: 2a70 0b3d 8e7b ba3d 282d 513c 25f4 993d
000001c0: 1535 063e 6666 1ebd 37d9 0b3e ab18 023e
000001d0: 7304 bc3d c57f 43bd 18cf b2bd 1efc 97bd
000001e0: 8059 343d f448 493d fb05 1b3c cf58 73bd
000001f0: 193b 8e3d 0ffc be3d a50b 593d f68d 46bb
00000200: 4f80 903d b992 e33c 4687 ae3d 990a 3cbd
00000210: d27b 813d 2f24 4e3d cb1b dfbd 43e8 193d
00000220: 9d80 79bd 587c b23d 66dd a0bd 80db dc3d
00000230: dfbb eabd 9cbb fabd d760 10bd cfbe 353d
00000240: da22 7f3d 9ac2 92bd bd34 ea3d 0f6d e9bd
00000250: 3629 543d 1ff8 03be 9049 fe3d 09c9 833c
00000260: bb51 cbbd 8eb0 7ebd 7808 e53d 94fa 5ebb
00000270: 824e 1d3d 5bec 78bd 7483 303b 8ee4 0cbe
00000280: 1a12 8fbc e3dc 1f3d 7e56 8abc 0cc4 86bc
00000290: 81f4 423d 9731 82bd 056d 473d 4145 233c
000002a0: fef8 72bd 16bd 3ebb 5dae 153c 5716 dc3c
000002b0: 318d cbbd 1cf7 90bd 65e4 a0bd c36c ef3d
000002c0: 66e6 853d e2b3 6d3d ea45 36bd 673c c0bc
000002d0: 3bbf c43d 0827 3dbd e342 f23d 8511 c03d
000002e0: 29d7 aabc 5302 393d 86cd a43d f6ce 293d
000002f0: 867b 073e 769b d4bd a651 063e 3857 013d
00000300: 09f0 b0bd c2a1 c3bd d134 8abd 2393 e8bd
00000310: 4780 3e3d e7f0 d63d 3061 efbd 41d1 f33d
00000320: ffdb d53d b877 6bbd 281e 3bbd 18a2 d8bc
00000330: ed9a f4bd 804f 273c 65b0 f53c babb b83d
00000340: 8dfb 9e3c 8e89 013d e681 2ebd ae0e ebbd
00000350: 369b 393d bdd1 0d3d ba95 d33d 35b5 a53d
00000360: 77f7 e8bc ef93 fdbd 2720 b23d 7b0b aabd
00000370: 176f b3bd 3a41 01be aece 71bd 8b1b 5e3a
00000380: 9092 dcbd 38e4 fbbd 69e8 b13b f003 883d
00000390: b8b4 88bd 7ea7 f93d bb9e 39bd b610 6b3d
000003a0: c91e adbd cce0 73bd 8751 ec3d 6213 5d3d
000003b0: db99 6f3c 93b9 0abd cd61 cfbd e3d3 c0bd
000003c0: 021b e03d f3b1 c73d 62a4 29bd a5b8 c13d
000003d0: 3501 8e3d 2eac 5a3d c5b4 43bd ca90 b13d
000003e0: c721 8a3d ee59 bdbc 568f 14bc cd35 40bd
000003f0: ac76 0f3d 6d01 c4bb 0352 22bc 5129 a13d

lstm.bias_ih_l0 f4 [256]
-0.026753403 0.076088145 0.06660403 0.020664277 -0.091952495 0.051486515 -0.057074677 0.12693639
0.089451276 -0.019092124 -0.03992336 0.1369408 0.06531414 -0.010272045 -0.07753455 -0.061471485
0.093601786 0.02061697 -0.03427867 0.094609454 0.040681925 0.023716893 -0.01187408 -0.0112145925
0.060338195 0.14825109 -0.004508868 0.12025449 0.0087622935 0.066798806 0.100009196 0.09016674
-0.012564912 -0.019188544 0.005446977 0.006712709 -0.013482379 -0.085678935 0.0652666 0.08296669
0.06999102 0.09885162 0.04589019 -0.053929158 0.05808173 -0.08939625 0.1135781 0.072194494
0.12606022 -0.010163894 -0.050162844 0.123483635 -0.0836377 0.10447803 0.12052212 0.041957904
0.11262657 0.038896825 0.06741547 0.14901267 -0.02697558 -0.07237205 -0.012007953 -0.059618887
0.07954515 0.06773906 0.0820659 0.09053182 0.10115982 0.07965116 -0.08305147 0.088356614
0.050181806 0.0677179 0.15207274 0.11800656 0.021143366 -0.021310087 -0.021339804 0.13099454
-0.021541363 -0.08788825 0.099078976 0.035001155 0.09503511 -0.024324093 0.009887027 0.030257711
-0.06925449 0.011406049 0.06857037 0.0387847 0.021964584 0.07832227 -0.027516413 0.03722988
0.094614685 0.037695844 0.09048227 0.1523354 0.09002718 -0.05123362 -0.064962536 -0.0069660707
-0.056017715 -0.105882734 -0.037681155 0.028056711 0.03558208 0.07391168 0.13344263 -0.13200706
0.1435709 0.084502704 0.022673499 -0.049663 -0.06383585 -0.09360058 -0.08784449 0.12996534
-0.06326273 0.14027025 0.02100086 0.14239278 0.14461237 0.102090895 -0.112874016 0.06508287
-0.042848997 -0.07866512 0.082104504 -0.13706052 0.015280132 0.080484584 0.08829993 0.09162101
-0.09286127 0.1378811 -0.1339375 0.080217406 0.108428776 0.11274686 -0.021674352 0.064062625
-0.07014003 -0.051925674 0.024880586 -0.106995374 -0.08064596 -0.045658458 -0.12300862 0.04416194
0.086730234 0.12722382 0.12505451 -0.14690083 0.04387035 0.06691712 -0.07090369 0.109989434
-0.14535345 -0.008987448 -0.12414135 0.03810572 0.05915366 -0.06273116 -0.13607244 -0.021195648
0.08700899 -0.025012199 -0.13896658 -0.15169527 0.06518994 -0.08936942 -0.13733654 -0.00791409
-0.01338851 -0.022472573 0.095472276 0.11043654 0.01738531 0.048259493 -0.10733203 0.046001032
-0.10136175 0.040824346 -0.10153306 -0.06183488 -0.15479118 -0.13341497 -0.025419932 -0.07750535
-0.05657808 0.026867874 0.111065745 -0.07214089 -0.08162798 0.043807924 -0.08586746 0.028709821
0.037950914 -0.059952706 -0.01630198 0.03545277 -0.023320286 0.13569872 0.115974024 -0.017912548
0.06563183 0.11545539 0.14545017 0.006410628 0.009566618 0.11588968 0.14202641 0.062808365
-0.049619973 0.0201314 0.05418867 0.06787639 -0.018727148 -0.071530275 -0.06752397 0.06333844
0.07918042 -0.015979528 0.10560743 0.021450752 -0.032128565 -0.03511254 -0.039757118 -0.0440684
0.02968386 -0.048184026 0.14297998 0.12358296 -0.02743017 0.09915633 0.07318861 -0.05538665
0.14076528 -0.022526562 0.009097201 0.13809575 0.1484721 0.017466838 -0.100583345 0.13521515
-0.10743496 0.063541025 -0.027549341 0.0860992 -0.08976411 0.0166773 -0.09557933 0.13023713
00000000: f429 dbbc 1ad4 9b3d b267 883d 2148 a93c
00000010: 9751 bcbd 86e3 523d 23c7 69bd 9dfb 013e
00000020: 3b32 b73d 1667 9cbc ad86 23bd 363a 0c3e
00000030: 6bc3 853d 144c 28bc 6fca 9ebd 86c9 7bbd
00000040: 4bb2 bf3d ebe4 a83c ca67 0cbd 9ac2 c13d
00000050: 17a2 263d ee49 c23c 808b 42bc 69bd 37bc
00000060: 2f25 773d 22cf 173e 20bf 93bb fc47 f63d
00000070: b98f 0f3c d0cd 883d 9fd1 cc3d 57a9 b83d
00000080: 10dd 4dbc 4b31 9dbc 8e7c b23b 49f6 db3b
00000090: 32e5 5cbc 7078 afbd 7faa 853d 71ea a93d
000000a0: 7457 8f3d b872 ca3d 5af7 3b3d d2e4 5cbd
000000b0: 1ce7 6d3d 6215 b7bd a39b e83d b5da 933d
000000c0: ee15 013e 7686 26bc 8e77 4dbd fde4 fc3d
000000d0: 3e4a abbd 94f8 d53d 4dd4 f63d 0ddc 2b3d
000000e0: c2a8 e63d 4752 1f3d 1f11 8a3d c796 183e
000000f0: e4fb dcbc cc37 94bd 01bd 44bc ef32 74bd
00000100: 91e8 a23d c7ba 8a3d 2b12 a83d bf68 b93d
00000110: e12c cf3d 2620 a33d e416 aabd 50f4 b43d
00000120: 708b 4d3d afaf 8a3d f5b8 1b3e 6cad f13d
00000130: da34 ad3c 7e92 aebc d0d0 aebc 6f23 063e
00000140: 8377 b0bc c1fe b3bd ebe9 ca3d 5f5d 0f3d
00000150: c5a1 c23d 5243 c7bc 32fd 213c 05df f73c
00000160: 4cd5 8dbd 70e0 3a3c 9f6e 8c3d b5dc 1e3d
00000170: 12ef b33c 6d67 a03d 1a6a e1bc 5c7e 183d
00000180: 58c5 c13d f566 1a3d c54e b93d d0fd 1b3e
00000190: 2c60 b83d 58da 51bd 140b 85bd a343 e4bb
000001a0: d572 65bd 0cd9 d8bd 8e57 1abd 30d7 e53c
000001b0: 84be 113d 025f 973d 2fa5 083e dc2c 07be
000001c0: 4004 133e c10f ad3d c6bd b93c 6e6b 4bbd
000001d0: 5fbc 82bd a9b1 bfbd d0e7 b3bd a215 053e
000001e0: e48f 81bd 01a3 0f3e ff09 ac3c 6acf 113e
000001f0: 4415 143e 0815 d13d 7e2a e7bd 2b4a 853d
00000200: 6e82 2fbd 2e1b a1bd 6826 a83d 9859 0cbe
00000210: 8559 7a3c 1ad5 a43d 98d6 b43d cca3 bb3d
00000220: 0d2e bebd b430 0d3e e926 09be 0649 a43d
00000230: e80f de3d d3e7 e63d 698e b1bc 4433 833d
00000240: 93a5 8fbd 04b0 54bd 5fd2 cb3c 6420 dbbd
00000250: b629 a5bd 5d04 3bbd f2eb fbbd 27e3 343d
00000260: 9f9f b13d f646 023e 4a0e 003e 2c6d 16be
00000270: 65b1 333d d80b 893d f435 91bd 2442 e13d
00000280: 89d7 14be 1740 13bc d23d febd be14 1c3d
00000290: 1c4b 723d 3279 80bd 9356 0bbe 7fa2 adbc
000002a0: c531 b23d 62e6 ccbc 414d 0ebe 0156 1bbe
000002b0: 4e82 853d 5107 b7bd f3a1 0cbe 19aa 01bc
000002c0: 7b5b 5bbc 6718 b8bc f886 c33d 8d2c e23d
000002d0: a36b 8e3c bfab 453d e5d0 dbbd 946b 3c3d
000002e0: c096 cfbd 6e37 273d 91f0 cfbd 9246 7dbd
000002f0: 9481 1ebe ef9d 08be 763d d0bc 20bb 9ebd
00000300: 6bbe 67bd 041a dc3c 7076 e33d 9abe 93bd
00000310: 922c a7bd f06f 333d 47db afbd dc30 eb3c
00000320: 6b72 1b3d f890 75bd bb8b 85bc ec36 113d
00000330: 2f0a bfbc 9bf4 0a3e ca83 ed3d 56bd 92bc
00000340: fb69 863d e073 ec3d e4f0 143e 3f10 d23b
00000350: 4ebd 1c3c 9257 ed3d 5f6f 113e aca1 803d
00000360: 503e 4bbd 9bea a43c f0f4 5d3d c702 8b3d
00000370: ad69 99bc 777e 92bd 024a 8abd 96b7 813d
00000380: 5829 a23d 80e7 82bc b548 d83d 7db9 af3c
00000390: 3e99 03bd 2bd2 0fbd 5cd8 22bd 1181 34bd
000003a0: 912b f33c 9d5c 45bd 5869 123e 1019 fd3d
000003b0: 3cb5 e0bc 7912 cb3d e9e3 953d 1ddd 62bd
000003c0: c624 103e a089 b8bc 6d0c 153c f968 0d3e
000003d0: 1209 183e 9d16 8f3c a4fe cdbd d775 0a3e
000003e0: dc06 dcbd cc21 823d 28af e1bc c754 b03d
000003f0: 3fd6 b7bd d59e 883c 19bf c3bd e25c 053e

lstm.bias_hh_l0 f4 [256]
0.087692395 0.10009468 -0.078136906 0.026466182 0.03728066 0.13705191 0.09737828 0.114490464
0.118418135 0.07467634 0.09936114 0.1534104 -0.06910129 0.010140073 0.14445576 -0.0024908893
0.03054937 0.07516058 0.020069886 -0.10222109 0.13497572 0.115210764 0.096189566 0.1238082
0.048694104 0.062329467 0.121164 -0.0024488308 0.1268535 -0.093209215 0.0072956486 -0.09312529
-0.06376049 -0.051073585 0.10617432 -0.07741683 0.05677242 0.13291 -0.1017796 -0.010659219
-0.045287628 0.075788766 0.12170855 0.049965534 -0.09453189 0.059396602 0.07250918 0.010466642
-0.06224956 0.12890287 -0.025544306 -0.058202427 0.09131417 -0.10366821 -0.0960136 0.05243463
-0.10134682 0.06279906 0.04904875 -0.026647678 0.053945504 -0.06793821 -0.008939536 0.034633685
-0.018145444 -0.075443916 -0.05477004 0.11794826 -0.10217423 0.01336409 0.029996006 0.10107216
0.0379221 0.035563383 -0.04310074 0.04504755 0.016630504 0.13391493 0.103014916 -0.07096974
0.10995828 -0.09294049 0.073733844 -0.07917845 -0.0953499 0.047383357 -0.048988026 -0.07483705
-0.028029652 -0.037722856 -0.08494819 -0.039063938 -0.08681627 0.106259435 4.6575624e-06 0.028063292
0.01664496 -0.040706847 0.089184575 0.029849257 -0.034791246 -0.10027293 0.13982075 0.09907727
-0.015394062 -0.09719534 0.13865215 -0.09863702 0.065249786 0.093856886 -0.05722771 0.070460066
0.050002333 -0.08098502 -0.053790774 0.14016622 -0.024322243 -0.052224793 -0.042954315 0.0828656
0.07563271 0.025852397 0.06778514 -0.046867274 -0.06733289 0.076282695 -0.05986521 0.07225045
-0.056006167 0.14096195 -0.013133691 0.039681166 0.1328474 0.045872007 0.104047306 -0.14521754
-0.107141905 0.048583534 -0.112090595 0.06668825 0.12865435 -0.0051815296 0.057687156 0.12830082
0.13536756 0.03298149 0.04661222 0.09651786 -0.033845212 0.019426376 0.021501178 -0.026934205
0.012882035 -0.035945997 0.119461246 0.06226386 0.11624863 0.12965398 -0.06761642 -0.086076885
0.028995264 0.15227 -0.118820235 -0.11511859 -0.044410687 -0.084422484 0.050322436 0.08410895
-0.10156009 0.074598566 -0.055197977 0.06731857 0.111810915 0.07936453 -8.5920336e-05 0.11595506
0.12914565 0.1388943 -0.0425917 0.12587512 -0.09538587 0.01516933 -0.07647689 0.09626829
0.034487702 0.00909309 0.06030879 0.10411469 -0.1477821 -0.14734255 -0.13595846 0.051744197
0.07720463 0.036723316 0.0953204 0.07397122 0.12193267 0.07173832 0.15329415 -0.05118172
-0.09479123 0.10869157 0.021417916 -0.0018973242 0.03253128 0.066801734 0.089640886 0.0549033
0.110630885 -0.04013686 0.027564926 0.07838698 0.010028585 0.11940192 0.114595644 0.037098896
0.0059558637 0.10058679 0.11415653 -0.0061292676 -0.026853487 -0.05436712 -0.076918796 0.065513395
-0.062308583 0.023558058 -0.033401933 0.056371678 0.025045324 -0.048399296 -0.028932283 0.044461235
-0.055875193 0.044540387 0.08585675 -0.09721445 -0.06746557 -0.10107022 -0.059099242 -0.061879847
-0.09145119 0.08662611 -0.012432245 -0.020127377 0.103858076 0.11642332 0.061633606 0.11716265
-0.10949075 -0.06933398 0.074217275 0.006803524 -0.040458832 -0.025278967 0.06319831 0.100063175
00000000: 1298 b33d 71fe cc3d 3e06 a0bd 9bcf d83c
00000010: 9bb3 183d 5657 0c3e 436e c73d fa79 ea3d
00000020: 3585 f23d e9ef 983d da7d cb3d 9e17 1d3e
00000030: fa84 8dbd 8c22 263c 36ec 133e 303e 23bb
00000040: ac42 fa3c caed 993d 9a69 a43c 4a59 d1bd
00000050: 1337 0a3e 9ff3 eb3d 09ff c43d 278f fd3d
00000060: 7873 473d 2f4d 7f3d d524 f83d 907c 20bb
00000070: e2e5 013e 79e4 bebd 5610 ef3b 79b8 bebd
00000080: dc94 82bd 8932 51bd ec71 d93d b78c 9ebd
00000090: 328a 683d 8f19 083e d371 d0bd 01a4 2ebc
000000a0: 857f 39bd 2437 9b3d 5542 f93d a9a8 4c3d
000000b0: ef99 c1bd da49 733d b17f 943d 477c 2b3c
000000c0: 65f9 7ebd 1dff 033e 4b42 d1bc ab65 6ebd
000000d0: ec02 bb3d 0050 d4bd c7a2 c4bd b2c5 563d
000000e0: ec8e cfbd cb9c 803d 58e7 483d 3b4c dabc
000000f0: f6f5 5c3d 3023 8bbd 2277 12bc 0ddc 0d3d
00000100: c1a5 94bc 5782 9abd 8d56 60bd db8e f13d
00000110: b940 d1bd 0ef5 5a3c 2fba f53c ecfe ce3d
00000120: 3454 1b3d e9aa 113d 678a 30bd c883 383d
00000130: b23c 883c ff20 093e 7cf9 d23d 9558 91bd
00000140: cf31 e13d 9557 bebd c501 973d 5028 a2bd
00000150: cf46 c3bd 0d15 423d aba7 48bd 2b44 99bd
00000160: 719e e5bc 4883 1abd 51f9 adbd 8201 20bd
00000170: bbcc b1bd 8c9e d93d 2848 9c36 fde4 e53c
00000180: 035b 883c 39bc 26bd 67a6 b63d 6e86 f43c
00000190: 4481 0ebd e55b cdbd 2c2d 0f3e 06e9 ca3d
000001a0: 6037 7cbc 5a0e c7bd d4fa 0d3e 3502 cabd
000001b0: aea1 853d 0a38 c03d 9a67 6abd 5e4d 903d
000001c0: 3fcf 4c3d 79db a5bd b753 5cbd bc87 0f3e
000001d0: 713f c7bc aae9 55bd ddf0 2fbd 71b5 a93d
000001e0: 52e5 9a3d 68c8 d33c efd2 8a3d e6f7 3fbd
000001f0: d4e5 89bd 1a3a 9c3d 3935 75bd 0bf8 933d
00000200: b966 65bd 5458 103e b12e 57bc b888 223d
00000210: 2609 083e 49e4 3b3d c116 d53d e8b3 14be
00000220: 376d dbbd 87ff 463d c18f e5bd d993 883d
00000230: f7bd 033e d2c9 a9bb 5e49 6c3d 4a61 033e
00000240: cb9d 0a3e 9917 073d 75ec 3e3d 28ab c53d
00000250: 47a1 0abd 1024 9f3c 3d23 b03c 1fa5 dcbc
00000260: 2c0f 533c 1c3c 13bd 19a8 f43d 6408 7f3d
00000270: c313 ee3d 03c4 043e 7a7a 8abd 1449 b0bd
00000280: 7a87 ed3c abec 1b3e 0658 f3bd 4cc3 ebbd
00000290: fbe7 35bd b2e5 acbd e61e 4e3d 5041 ac3d
000002a0: bdfe cfbd 22c7 983d 4617 62bd 52de 893d
000002b0: 1ffd e43d df89 a23d 2130 b4b8 d979 ed3d
000002c0: c23e 043e 4f3a 0e3e a274 2ebd 68e5 003e
000002d0: ab59 c3bd c888 783c ea9f 9cbd 4f28 c53d
000002e0: fa42 0d3d 2ffb 143c 5a06 773d 153a d53d
000002f0: 3154 17be f7e0 16be b238 0bbe b9f1 533d
00000300: 761d 9e3d 306b 163d 5837 c33d 397e 973d
00000310: d6b7 f93d 8aeb 923d 24f9 1c3e eca3 51bd
00000320: e821 c2bd b099 de3d a074 af3c a3af f8ba
00000330: 853f 053d 59cf 883d a495 b73d 48e2 603d
00000340: 7292 e23d 8c66 24bd d7cf e13c 5a89 a03d
00000350: ef4e 243c fe88 f43d 1fb1 ea3d 03f5 173d
00000360: 6829 c33b 7200 ce3d e6ca e93d 06d8 c8bb
00000370: d8fb dbbc 0fb0 5ebd 9a87 9dbd e32b 863d
00000380: 4937 7fbd d4fc c03c 77d0 08bd fde5 663d
00000390: da2b cd3c 573e 46bd 6503 edbc fc1c 363d
000003a0: 63dd 64bd fb6f 363d aad5 af3d 5f18 c7bd
000003b0: 642b 8abd e7fd cebd 0c12 72bd b975 7dbd
000003c0: c34a bbbd 0869 b13d 9db0 4bbc 2be2 a4bc
000003d0: 8bb3 d43d 596f ee3d 8573 7c3d f9f2 ef3d
000003e0: b03c e0bd f9fe 8dbd 3aff 973d 19f0 de3b
000003f0: 29b8 25bd d615 cfbc 1e6e 813d eced cc3d

lstm.weight_ih_l0_reverse f4 [256, 3]
-0.100200094 -0.06915487 -0.053118765 0.12881868 -0.06042397 0.023720112 -0.037579354 -0.03040922
-0.008224425 0.07658781 0.010728875 -0.019229019 -0.021568034 0.034964465 -0.040750884 -0.045571268
0.060258906 0.009757998 -0.091762595 -0.06229979 0.019901 -0.07270328 0.04050547 0.077555
-0.057916805 0.13499284 -0.047760725 0.14777014 0.10750841 0.040446036 -0.109675944 0.07657951
0.11117737 -0.0118775 0.127478 0.10398081 -0.010472018 0.11836833 -0.035273325 0.030739611
-0.012136219 -0.044723958 0.115561366 0.057750292 0.13762127 0.10677516 -0.019383581 -0.043948963
-0.056815237 0.0342013 0.0864964 -0.046276215 0.039407164 -0.09754643 0.042361513 0.14184037
0.117879756 -0.09663007 0.0068447674 0.04368443 0.026357705 -0.028073952 0.08347586 0.10397135
0.06378325 -0.08828262 0.053142905 0.11448963 -0.0974827 -0.029802166 0.11338972 0.033275828
-0.09178791 -0.08701247 -0.09916006 -0.047669213 0.064398795 -0.042950857 -0.030091321 0.047503572
0.058072593 0.037996866 0.11307765 -0.030237745 0.116581276 0.031211523 0.056667242 -0.08949411
0.0314704 -0.029229755 -0.01679559 0.09288275 0.09689344 -0.019247573 0.024979927 -0.08197824
-0.029501162 0.09593683 0.04557749 -0.064726196 -0.051829807 0.057979777 0.028717982 0.019145282
-0.044141047 -0.0050156033 -0.07160816 0.11637701 -0.090878166 0.08070365 0.071168184 -0.077190906
0.06844314 -0.04708738 -0.04245668 -0.08584306 -0.08525834 0.10881795 0.081282556 -0.025495058
0.08604238 0.07772568 -0.0040043606 -0.0998439 0.050107334 0.022413434 0.10300813 0.02243818
0.09449111 -0.09873039 -0.05902217 0.017240284 0.018165793 0.1257543 0.12357313 -0.015886005
0.117090456 0.04623925 -0.07813714 -0.05850533 0.0979608 -0.046712995 0.01946726 -0.080761924
-0.0038084122 -0.011235418 -0.0021825074 0.11304514 0.14169532 0.076465644 0.085996404 0.1086198
0.14033271 -0.10943309 -0.06676003 -0.08775102 0.00450538 0.14082453 -0.017109402 0.09588708
0.10407712 0.09820892 0.12271746 0.086053416 0.03561782 -0.07193328 0.0066954894 0.019855937
0.027578568 -0.039754905 0.0061460207 -0.04200129 -0.11887612 -0.05451884 0.114209235 -0.03185921
0.043878846 0.08654323 0.04882639 -0.031165175 0.07161468 0.12976651 -0.07256954 -0.12687674
0.03401363 -0.09174016 0.053917736 -0.02640499 0.02994056 0.10660543 0.095112346 0.0055971732
-0.04584311 -0.0009996138 -0.09342139 0.09134128 -0.039793078 -0.012973341 0.123535946 -0.09668063
0.06726082 -0.08419524 0.058330458 0.025512772 -0.09174796 0.018754529 0.10241444 0.047484044
-0.02317041 0.07299854 0.11930729 0.12429984 -0.094214834 0.012438393 -0.052437257 -0.050744865
0.14349636 0.14889349 0.093688086 -0.04297629 0.016002292 0.08259302 0.10094687 -0.11487599
0.04020212 -0.027653806 0.020084659 -0.08855118 0.11455571 0.017503168 0.118629046 0.062486105
-0.03513724 0.04886638 -0.07105186 0.00045002825 0.082512945 -0.056642108 -0.1026568 0.06312719
-0.023782635 0.012828319 -0.040203072 -0.041526753 -0.096789844 -0.045202002 -0.021608865 0.042070962
-0.094108716 0.07864904 0.12473538 0.10766274 -0.03015246 -0.06801409 0.012986102 0.09952935
00000000: b535 cdbd 12a1 8dbd 1093 59bd 0be9 033e
00000010: 207f 77bd ae50 c23c cfec 19bd c21c f9bc
00000020: bdbf 06bc 12da 9c3d 2ac8 2f3c 2d86 9dbc
00000030: 72af b0bc e636 0f3d 66ea 26bd f0a8 3abd
00000040: 0bd2 763d 03e0 1f3c 07ee bbbd 112e 7fbd
00000050: 6c07 a33c 75e5 94bd 10e9 253d 28d5 9e3d
00000060: 2c3a 6dbd 903b 0a3e c0a0 43bd 0e51 173e
00000070: 5f2d dc3d beaa 253d c89d e0bd b8d5 9c3d
00000080: f6b0 e33d d999 42bc 9889 023e e4f3 d43d
00000090: d492 2bbc 186b f23d c37a 10bd a3d1 fb3c
000000a0: fed6 46bc 7830 37bd 70ab ec3d 928b 6c3d
000000b0: 97ec 0c3e efac da3d 51ca 9ebc d403 34bd
000000c0: 18b7 68bd aa16 0c3d 0625 b13d 218c 3dbd
000000d0: 6869 213d 6cc6 c7bd 4483 2d3d 9a3e 113e
000000e0: f16a f13d fce5 c5bd 124a e03b 72ee 323d
000000f0: 1dec d73c 58fb e5bc 64f5 aa3d eeee d43d
00000100: cba0 823d 85cd b4bd 60ac 593d 8a79 ea3d
00000110: 03a5 c7bd ac23 f4bc df38 e83d 3c4c 083d
00000120: 4dfb bbbd 9833 b2bd 6e14 cbbd cb40 43bd
00000130: 84e3 833d 3ded 2fbd 1382 f6bc 1b93 423d
00000140: 87dd 6d3d 9aa2 1b3d 4195 e73d 26b5 f7bc
00000150: 2ac2 ee3d 4faf ff3c e91b 683d b048 b7bd
00000160: 1be7 003d 3d73 efbc e896 89bc 5039 be3d
00000170: 1170 c63d 16ad 9dbc b4a2 cc3c 35e4 a7bd
00000180: 6cac f1bc 877a c43d 76af 3a3d 2b8f 84bd
00000190: 7e4b 54bd 347c 6d3d f941 eb3c 91d6 9c3c
000001a0: 3ecd 34bd ee59 a4bb 4da7 92bd 1257 ee3d
000001b0: 551e babd f547 a53d a0c0 913d 4416 9ebd
000001c0: eb2b 8c3d b2de 40bd 0ee7 2dbd 7cce afbd
000001d0: ed9b aebd f2db de3d 7877 a63d 03db d0bc
000001e0: fd36 b03d a42e 9f3d 0337 83bb f57a ccbd
000001f0: 593d 4d3d 619c b73c edf5 d23d 46d0 b73c
00000200: 8e84 c13d 2933 cabd 3bc1 71bd 7f3b 8d3c
00000210: 6ed0 943c bcc5 003e e913 fd3d 5e23 82bc
00000220: 1fcd ef3d 5e65 3d3d 5d06 a0bd 49a3 6fbd
00000230: ac9f c83d 2056 3fbd ce79 9f3c 8266 a5bd
00000240: 8e96 79bb c214 38bc 6608 0fbb 3684 e73d
00000250: 9418 113e 059a 9c3d e21e b03d 0f74 de3d
00000260: 61b3 0f3e 751e e0bd 7cb9 88bd cfb6 b3bd
00000270: dea1 933b 4e34 103e 0429 8cbc 7260 c43d
00000280: 6326 d53d c221 c93d 4b53 fb3d c63c b03d
00000290: fee3 113d c151 93bd d665 db3b eba8 a23c
000002a0: 73ec e13c 0ad6 22bd 8f64 c93b 8b09 2cbd
000002b0: 5375 f3bd 264f 5fbd 88e6 e93d ce7e 02bd
000002c0: 4eba 333d 943d b13d 2efe 473d 1c4e ffbc
000002d0: b8aa 923d 83e1 043e 579f 94bd faeb 01be
000002e0: e051 0b3d 44e2 bbbd d8d8 5c3d 474f d8bc
000002f0: e845 f53c f353 da3d 43ca c23d 7e68 b73b
00000300: fcc5 3bbd 7905 83ba b753 bfbd 2311 bb3d
00000310: 11fe 22bd 238e 54bc 6a00 fd3d 7f00 c6bd
00000320: 0ac0 893d 8e6e acbd ebeb 6e3d 2900 d13c
00000330: 5be6 bbbd 19a3 993c a9be d13d a17e 423d
00000340: dfcf bdbc 4280 953d 6157 f43d ea90 fe3d
00000350: b5f3 c0bd 67ca 4b3c 73c8 56bd d9d9 4fbd
00000360: b6f0 123e 8977 183e 8adf bf3d e807 30bd
00000370: 3d17 833c 8726 a93d 3cbd ce3d 1a44 ebbd
00000380: faaa 243d 3c8a e2bc 9588 a43c 525a b5bd
00000390: 2f9c ea3d ce62 8f3c c9f3 f23d 6ef1 7f3d
000003a0: 11ec 0fbd 1d28 483d a383 91bd c5f1 eb39
000003b0: 8cfc a83d 8e01 68bd ba3d d2bd d448 813d
000003c0: cdd3 c2bc df2d 523c faab 24bd f517 2abd
000003d0: c139 c6bd bc25 39bd 1305 b1bc 9a52 2c3d
000003e0: 12bc c0bd bf12 a13d 4375 ff3d 487e dc3d
000003f0: 4b02 f7bc f94a 8bbd a9c3 543c 0bd6 cb3d

lstm.weight_hh_l0_reverse f4 [256, 64]
0.016915083 -0.06065339 0.029470729 -0.1409351 -0.07116343 0.029916223 -0.042330846 0.058360536
-0.076864526 0.08510976 -0.04370872 -0.017090335 -0.01809053 0.0304816 0.089425944 -0.036057215
0.05398641 0.031764485 0.07654589 -0.08509875 -0.00793856 -0.011028157 -0.014405075 0.080627576
0.03680655 -0.04565914 -0.034220908 0.03585966 0.020745883 0.042014714 0.0352298 0.09828797
-0.03697849 0.10692847 0.04763414 -0.09152775 -0.02382323 -0.05370105 -0.14636225 0.040703893
0.07709936 0.10574885 0.005365549 -0.09219379 0.054780785 0.026859237 -0.0058658216 0.014271566
-0.13893542 -0.008278564 0.11380732 -0.028633924 -0.083720215 0.004926114 -0.080135144 -0.13915686
-0.03818799 -0.097168826 0.12239635 0.02645699 -0.112822704 0.018229466 -0.10377563 0.11898287
-0.09772995 0.116146296 0.13340998 0.06853324 0.0826618 -0.017794246 0.11997503 0.09227973
0.13056186 -0.04522409 -0.08614295 -0.053725667 0.06492467 -0.12448554 0.098354615 0.042849846
0.08451329 0.09543482 0.0012489831 0.017123114 0.015324202 0.12012997 0.013479033 0.008007731
-0.03681353 0.008377974 0.08960952 0.072849885 0.04189192 0.11340452 -0.07023598 0.09218799
0.033452444 0.12547365 -0.05285767 -0.0049566757 0.01402336 -0.025274336 0.085574135 -0.01288264
0.0597004 0.10116494 -0.054333728 0.045130633 0.11863885 0.01125478 0.06796467 -0.065551795
0.07020637 0.0949782 0.1307551 -0.0991409 -0.07834909 -0.12780045 0.04120275 0.012803673
0.033342317 0.026248345 -0.07130011 -0.11311652 -0.012285941 -0.0074204872 -0.11772302 0.05856859
0.0030011248 0.018995829 0.043279875 -0.041955993 -0.031051565 0.051615193 0.058752567 0.06722723
-0.10257484 -0.11493672 -0.10197789 -0.11555587 -0.09780396 0.065827735 0.0053144814 0.019110398
0.002797741 0.060608488 -0.009935022 0.012514406 0.049488567 -0.03449775 -0.060383484 -0.054841008
0.07570342 0.050533455 -0.04419265 -0.050765395 -0.0936675 -0.08212107 0.08850976 0.08698449
-0.048666846 -0.10849916 -0.08021532 -0.113804236 -0.10043272 0.08736799 0.0494893 0.118360095
0.0737259 -0.068558015 -0.020191533 -0.06670442 0.037630104 -0.06040239 -0.116884485 6.682205e-05
0.09837681 0.04316429 0.061232094 -0.08971549 0.009265848 0.119279765 -0.019480059 0.109132946
0.0894943 -0.03689119 0.11989939 -0.1027144 -0.0883302 0.02780018 -0.033221465 0.025299482
-0.054494604 0.09211367 -0.088338345 -0.15035743 -0.020836407 0.056087807 0.062272098 0.101193964
0.046406593 -0.058587022 -0.044618662 0.07129842 0.076629296 -0.15147385 0.12600532 -0.037290134
0.09434747 0.083417095 -0.050971273 -0.052236527 0.123036854 0.115321964 0.087961 -0.06985738
-0.056654137 -0.058551654 -0.077714995 0.05512037 0.12156093 0.13708366 0.06620543 -0.06836359
-0.017634198 -0.026663993 -0.054934546 -0.021291051 -0.061193 -0.049577963 -0.045912318 -0.093425564
-0.12991929 0.059747223 -0.111727655 -0.05283831 0.033365544 -0.00966242 -0.027564466 -0.030875921
-0.13536325 0.14893459 0.07452889 -0.04516407 -0.07195577 0.07607703 0.07904081 -0.120321006
-0.13353337 -0.06916161 0.124781676 0.017476788 -0.106128916 -0.09831876 0.08781229 -0.07387617
00000000: 8091 8a3c b06f 78bd 996c f13c 4a51 10be
00000010: 22be 91bd de12 f53c 1c63 2dbd 750b 6f3d
00000020: 266b 9dbd 074e ae3d ea07 33bd 0801 8cbc
00000030: 9732 94bc 8cb4 f93c f324 b73d bbb0 13bd
00000040: db20 5d3d 7a1b 023d 17c4 9c3d 4148 aebd
00000050: bc10 02bc 71af 34bc 4403 6cbc 1220 a53d
00000060: 77c2 163d 1405 3bbd 392b 0cbd 94e1 123d
00000070: 45f3 a93c 9f17 2c3d 1f4d 103d 344b c93d
00000080: c276 17bd 50fd da3d 041c 433d e772 bbbd
00000090: ef28 c3bc a2f5 5bbd fcdf 15be 20b9 263d
000000a0: 45e6 9d3d da92 d83d 7dd1 af3b 19d0 bcbd
000000b0: d161 603d e707 dc3c 1436 c0bb 49d3 693c
000000c0: 1645 0ebe d0a2 07bc d013 e93d b191 eabc
000000d0: 8175 abbd 3d6b a13b e51d a4bd 237f 0ebe
000000e0: 036b 1cbd 7300 c7bd f0aa fa3d 54bc d83c
000000f0: 970f e7bd f655 953c 5188 d4bd 4aad f33d
00000100: a426 c8bd 1cde ed3d a09c 083e 285b 8c3d
00000110: 974a a93d 3dc5 91bc 78b5 f53d 28fd bc3d
00000120: 02b2 053e e53c 39bd b76b b0bd 720f 5cbd
00000130: 3af7 843d 46f2 febd 256e c93d 5283 2f3d
00000140: 4e15 ad3d 5573 c33d ebb4 a33a c645 8c3c
00000150: 5d12 7b3c b406 f63d 29d7 5c3c dc32 033c
00000160: c9c9 16bd c543 093c 3285 b73d 5232 953d
00000170: dd96 2b3d a140 e83d e2d7 8fbd 0fcd bc3d
00000180: 6e05 093d 2a7c 003e 4981 58bd 9c6b a2bb
00000190: 3cc2 653c 200c cfbc 7e41 af3d b511 53bc
000001a0: 6888 743d 902f cf3d 0b8d 5ebd e6da 383d
000001b0: edf8 f23d f865 383c 1031 8b3d 0540 86bd
000001c0: 5bc8 8f3d ee83 c23d aae4 053e 620a cbbd
000001d0: 7d75 a0bd 1fde 02be 37c4 283d 7fc6 513c
000001e0: f491 083d c506 d73c cb05 92bd a2a9 e7bd
000001f0: f94a 49bc 8f27 f3bb c418 f1bd 9ee5 6f3d
00000200: 85ae 443b 249d 9b3c 3d46 313d 0cda 2bbd
00000210: da5f febc 746a 533d 88a6 703d 6eae 893d
00000220: c212 d2bd f163 ebbd c9d9 d0bd 8ea8 ecbd
00000230: 714d c8bd b1d0 863d 1a25 ae3b 698d 9c3c
00000240: 4e5a 373b 9b40 783d 81c6 22bc 3909 4d3c
00000250: 86b4 4a3d 834d 0dbd ac54 77bd f7a0 60bd
00000260: 650a 9b3d 2bfc 4e3d 5a03 35bd 60ef 4fbd
00000270: bfd4 bfbd 172f a8bd 9b44 b53d ed24 b23d
00000280: e356 47bd cf34 debd ee47 a4bd 3212 e9bd
00000290: abaf cdbd fded b23d 4bb5 4a3d c766 f23d
000002a0: 9bfd 963d 2568 8cbd b768 a5bc 549c 88bd
000002b0: 0622 1a3d 7f68 77bd 2261 efbd d122 8c38
000002c0: c879 c93d 0acd 303d 81ce 7a3d c1bc b7bd
000002d0: c9cf 173c f348 f43d a594 9fbc 1881 df3d
000002e0: ca48 b73d 371b 17bd d08d f53d ed5b d2bd
000002f0: 77e6 b4bd 34bd e33c 3b13 08bd dc40 cf3c
00000300: bc35 5fbd 18a6 bc3d bcea b4bd 4cf7 19be
00000310: 1db1 aabc 54bc 653d 0711 7f3d c83e cf3d
00000320: d714 3e3d f2f8 6fbd 0fc2 36bd e804 923d
00000330: d2ef 9c3d f61b 1bbe 8a07 013e 8abd 18bd
00000340: 3f39 c13d 95d6 aa3d 41c7 50bd f8f5 55bd
00000350: bffa fb3d ec2d ec3d e624 b43d 6311 8fbd
00000360: 2b0e 68bd dcd3 6fbd 0a29 9fbd e6c5 613d
00000370: f0f4 f83d a95f 0c3e b696 873d 3602 8cbd
00000380: 9875 90bc 726e dabc 0c03 61bd 926a aebc
00000390: 83a5 7abd 4312 4bbd 8e0e 3cbd e755 bfbd
000003a0: 9009 05be 81b9 743d 78d1 e4bd fc6c 58bd
000003b0: 4faa 083d 204f 1ebc e0ce e1bc 80ef fcbc
000003c0: aa9c 0abe 4f82 183e 9aa2 983d f6fd 38bd
000003d0: 8c5d 93bd 46ce 9b3d 26e0 a13d dc6a f6bd
000003e0: f9bc 08be 9aa4 8dbd 898d ff3d 7b2b 8f3c
000003f0: 1e5a d9bd 595b c9bd eed6 b33d 644c 97bd

lstm.bias_ih_l0_reverse f4 [256]
0.026384305 -0.08514899 -0.07681523 0.13805634 -0.0708254 0.024441017 -0.009547312 -0.043044947
-0.09009964 -0.05798883 -0.07771787 0.06286557 0.13829407 -0.09646667 -0.057963118 0.005324696
0.07554163 0.0881232 0.03776478 -0.015512659 -0.02228484 0.06011572 -0.013341536 0.0945957
-0.06804236 0.1116203 0.12227888 -0.05604953 0.0651751 0.05409292 0.025785588 -0.05642539
0.10690771 -0.10014884 0.12521097 0.06440379 0.0070784325 0.0143231405 0.07804137 -0.011576626
-0.079069145 0.014255275 -0.041013375 0.027088631 -0.08432314 0.027191967 -0.07188109 -0.027796041
0.081692584 0.10558184 0.09360947 0.07271639 -0.014794516 -0.06240705 -0.037816472 -0.13824193
0.0043770866 -0.015251889 -0.11515909 -0.047182344 -0.051022097 -0.09456887 -0.1068548 -0.104346804
-0.06403615 0.14521377 0.04757026 0.07887805 -0.104814164 -0.097916335 -0.08661421 0.119673006
0.053020213 -0.092347175 0.09881297 -0.031745322 0.10794854 0.020459898 0.13233593 0.048141725
0.10165038 0.0011748188 0.08571762 -0.045551248 0.023800144 -0.09742868 -0.005189567 0.047841482
-0.018481037 -0.06173347 0.10587006 0.110726066 0.012976053 0.08723723 -0.007815114 0.07225617
0.027089525 -0.065424815 -0.013462186 -0.046719655 0.091392435 -2.5005667e-05 0.11292502 -0.12738484
0.10516461 0.04733997 0.04896216 -0.057242658 -0.025390292 0.017693497 -0.0642146 -0.017807042
-0.014986917 -0.024356108 0.11924803 -0.09390715 0.12242958 0.08570273 0.046079352 -0.12877567
0.11376398 0.062227663 -0.11293689 0.0046713483 0.13346313 -0.04562034 0.08357962 -0.09228632
-0.10874668 0.06478449 0.052244492 -0.09599891 -0.060094588 0.14319387 0.10252587 0.061200187
0.026807604 0.040861968 -0.019236797 0.080769725 0.1255389 -0.1454184 0.09390709 -0.11800142
0.10331114 -0.1262813 -0.08062061 0.005262344 0.02517379 0.1324108 -0.07459879 -0.03456709
0.03683641 -0.12763977 -0.14362006 -0.12181514 0.101492934 0.14084554 -0.097772785 0.075860545
-0.0016579052 0.11605184 0.027630644 -0.048323233 0.008014795 -0.09874824 -0.10459947 0.0848023
-0.12802391 -0.00357655 -0.12794217 -0.06525914 0.049310323 0.10949809 -0.05570976 -0.05295616
-0.095355295 -0.092958175 0.091739625 -0.117059626 -0.04737198 0.07408301 0.06437534 -0.08455042
0.0058635585 -0.095517054 0.106321536 -0.09155755 -0.09515302 -0.1023198 0.06689217 0.12059425
0.080552064 0.11832089 0.004311363 0.072313875 0.0014291394 0.10737152 0.05710229 -0.02126329
0.09661081 -0.04580532 -0.030405391 0.12768143 -0.030208075 -0.05145196 0.12666343 -0.0739573
-0.08689897 -0.0248492 0.12670852 0.120840676 0.1493168 -0.063884646 0.056541365 -0.016793473
0.036515787 -0.008651121 -0.09155678 0.06615397 -0.060629796 0.13081679 0.033823386 0.12111382
-0.09384443 -0.08521395 0.12900542 -0.026779875 0.11691179 -0.08299011 -0.045448106 0.07836933
0.0693063 0.10106206 0.07494132 0.031161474 -0.056524627 0.028711002 -0.045353908 0.08196301
-0.08495772 -0.09300186 -0.0147792185 -0.035100065 0.014019278 0.038726218 0.12067048 -0.01758982
-0.056167655 0.030846983 -0.010754663 -0.089825824 -0.054515917 -0.089599535 0.038551066 0.07377136
00000000: e623 d83c 9862 aebd 4e51 9dbd a45e 0d3e
00000010: e80c 91bd 8738 c83c 546c 1cbc e64f 30bd
00000020: 2986 b8bd b285 6dbd 8c2a 9fbd aabf 803d
00000030: f69c 0d3e 5190 c5bd bc6a 6dbd ca7a ae3b
00000040: 92b5 9a3d f079 b43d 3eaf 1a3d cf28 7ebc
00000050: b28e b6bc e73b 763d 7596 5abc 64bb c13d
00000060: cb59 8bbd 2f99 e43d 596d fa3d 3194 65bd
00000070: 867a 853d 8a90 5d3d 4c3c d33c 4f1e 67bd
00000080: 6ef2 da3d d61a cdbd 4e37 003e 22e6 833d
00000090: 32f2 e73b 9bab 6a3c 27d4 9f3d e4ab 3dbc
000000a0: 01ef a1bd f58e 693c a4fd 27bd fae8 dd3c
000000b0: 9cb1 acbd b0c1 de3c 6536 93bd 86b4 e3bc
000000c0: 714e a73d 4b3b d83d 52b6 bf3d 55ec 943d
000000d0: b364 72bc 899e 7fbd 72e5 1abd 4b8f 0dbe
000000e0: aa6d 8f3b 0fe3 79bc 87d8 ebbd 4642 41bd
000000f0: 8cfc 50bd 53ad c1bd b0d6 dabd c7b3 d5bd
00000100: 6325 83bd ebb2 143e 08d9 423d d18a a13d
00000110: cfa8 d6bd 5c88 c8bd ca62 b1bd 1f17 f53d
00000120: b92b 593d 8420 bdbd 745e ca3d 6207 02bd
00000130: 2014 dd3d 849b a73c 1283 073e 4230 453d
00000140: 132e d03d 61fc 993a b88c af3d f293 3abd
00000150: 85f8 c23c b088 c7bd 3e0d aabb 6ef5 433d
00000160: 8b65 97bc 3cdc 7cbd 67d2 d83d 59c4 e23d
00000170: 8399 543c 6fa9 b23d f70a 00bc 0bfb 933d
00000180: daea dd3c 72fd 85bd 8090 5cbc 1c5d 3fbd
00000190: f52b bb3d 43c3 d1b7 3c45 e73d 2c71 02be
000001a0: 8b60 d73d 8ee7 413d 8c8c 483d 4777 6abd
000001b0: 4dff cfbc f4f1 903c f282 83bd 13e0 91bc
000001c0: b08b 75bc 7686 c7bc 5038 f43d 6452 c0bd
000001d0: 5cbc fa3d ea84 af3d b4bd 3c3d c5dd 03be
000001e0: 17fd e83d 6fe2 7e3d 754b e7bd 1c12 993b
000001f0: 8faa 083e 65dc 3abd cb2b ab3d 9c00 bdbd
00000200: 94b6 debd bbad 843d 52fe 553d 149b c4bd
00000210: be25 76bd 6aa1 123e 15f9 d13d 0cad 7a3d
00000220: 9f9b db3c e15e 273d 7d96 9dbc 996a a53d
00000230: 458d 003e 90e8 14be 5c52 c03d baaa f1bd
00000240: ca94 d33d e34f 01be 6b1c a5bd be6f ac3b
00000250: 4439 ce3c b296 073e 40c7 98bd 3996 0dbd
00000260: c7e1 163d 00b4 02be 2311 13be 377a f9bd
00000270: 87db cf3d d039 103e 193d c8bd c65c 9b3d
00000280: 114e d9ba 96ac ed3d a959 e23c 95ee 45bd
00000290: 7d50 033c 843c cabd 3f38 d6bd d4ac ad3d
000002a0: b318 03be 8d64 6abb 4603 03be 96a6 85bd
000002b0: 9ff9 493d 8940 e03d eb2f 64bd 8fe8 58bd
000002c0: a349 c3bd db60 bebd fce1 bb3d f5bc efbd
000002d0: 1f09 42bd d5b8 973d 38d7 833d c528 adbd
000002e0: 1823 c03b 729e c3bd 1bbf d93d 8682 bbbd
000002f0: 96df c2bd 0b8d d1bd c3fe 883d 1efa f63d
00000300: 7bf8 a43d 3952 f23d 5646 8d3b 4c19 943d
00000310: f651 bb3a 99e5 db3d 17e4 693d 5a30 aebc
00000320: e3db c53d 5c9e 3bbd ba14 f9bc ecbe 023e
00000330: ed76 f7bc 4abf 52bd 0fb4 013e ed76 97bd
00000340: 16f8 b1bd 8d90 cbbc e1bf 013e 517b f73d
00000350: 81e6 183e f4d5 82bd eb97 673d 7792 89bc
00000360: 9491 153d 6ebd 0dbc 1f82 bbbd bc7b 873d
00000370: f356 78bd d6f4 053e 648a 0a3d 860a f83d
00000380: 8231 c0bd a784 aebd ff19 043e 7861 dbbc
00000390: 736f ef3d b8f6 a9bd cb27 3abd 1980 a03d
000003a0: 76f0 8d3d a0f9 ce3d d67a 993d 5946 ff3c
000003b0: 5e86 67bd 5633 eb3c 05c5 39bd 39dc a73d
000003c0: 50fe adbd c277 bebd 8924 72bc 16c5 0fbd
000003d0: 1db1 653c 629f 1e3d 1622 f73d 8718 90bc
000003e0: 0e10 66bd d0b2 fc3c 5334 30bc 9af6 b7bd
000003f0: 154c 5fbd f67f b7bd b9e7 1d3d 7015 973d

lstm.bias_hh_l0_reverse f4 [256]
-0.07908365 -0.038823087 0.062781624 0.13304636 -0.032297507 0.06996128 -0.060210112 -0.060109854
-0.06736276 -0.056108467 0.08021116 0.0929405 0.032619208 -0.07825733 0.1344422 -0.10635946
0.08953658 0.12995951 0.02091043 0.13048166 0.064015165 -0.08388238 -0.022725124 0.10674094
0.07854852 0.08438602 0.06692627 0.017511263 0.018245153 0.03195782 0.10413337 -0.06881026
-0.097926855 0.082590245 0.11043104 -0.11277592 -0.092850976 -0.07299735 0.029014606 0.002879941
-0.06699122 -0.0856769 -0.030739889 -0.030408394 -0.06850082 -0.07782837 -0.0228237 0.10353003
-0.046547636 0.087969564 0.071140036 0.0037595045 0.08391215 0.022404402 -0.07345356 0.03386637
-0.09053478 -0.097821034 0.053603627 0.005817759 0.051859286 0.029421823 0.034442645 0.06490752
-0.016564442 0.046552967 0.043413505 -0.010002332 -0.067281134 0.092447266 -0.007766979 -0.010258451
-0.04075713 -0.044431057 -0.11451733 -0.012967845 0.053815108 -0.09283494 -0.008379283 -0.03002433
-0.08871985 0.058066707 0.016621083 0.14184076 0.07402188 0.13077933 0.060027953 0.06886722
-0.0059454436 0.044098828 0.01496902 -0.02329372 0.017189888 0.07509303 0.0056472095 0.0901516
-0.095547535 0.08712603 0.012232497 -0.0053074667 0.022887709 -0.0784837 -0.043382343 -0.023639781
-0.085927136 0.13529323 -0.012727531 0.02087488 -0.062872015 0.06983066 0.13611425 -0.03141202
0.05594133 0.1386089 -0.02654997 0.10371961 0.13493523 0.14765912 0.11020375 -0.045709185
0.123326994 0.107095435 -0.02660723 -0.059052724 -0.052340932 -0.06266593 0.04656626 -0.07642986
-0.028718697 0.14606759 0.025130725 -0.1072776 -0.115233086 0.13299297 0.037665717 0.13237159
0.14131413 0.0691732 -0.040262725 -0.021107277 0.03473251 -0.10226831 -0.029699983 0.101370454
-0.022707887 -0.15003867 -0.008237473 0.017652139 0.0603454 0.0022069844 -0.12901992 -0.07497935
-0.08065214 0.09191105 -0.11881298 0.013442116 0.0899666 -0.044129286 -0.050367758 0.064996645
-0.14805755 0.10323678 0.030768547 -0.05993377 -0.05287199 -0.10176538 0.016041186 -0.09944117
0.09859322 0.02833703 0.037638526 -0.07456712 0.13737838 0.116644315 0.023312338 0.12085933
-0.07721429 0.06350085 -0.06692777 0.10054032 0.13250749 -0.13483164 -0.036437076 -0.0503552
-0.12044067 -0.04138386 0.0034017116 0.009484237 -0.047859978 0.03908828 -0.06252637 -0.09621289
0.0023544591 0.045356836 0.10184627 0.075154394 0.09538299 -0.012775689 -0.0800512 0.1061581
0.13864745 0.09683257 -0.09295586 -0.027906345 -0.04575489 -0.04528211 -0.06438531 0.072403364
-0.066690534 -0.080033384 0.13682546 0.14276557 -0.062096033 -0.080305144 -0.005377504 0.10384293
0.029012777 -0.020619703 0.059001047 -0.037781596 -0.09732255 0.03484307 -0.0128193535 0.08501001
0.12504716 0.06492169 0.1049831 0.06612449 -0.06566859 -0.014030055 0.1379053 0.09966383
0.026413156 0.011071472 0.10894844 0.10517284 -0.0004870632 -0.0074692704 0.11648008 -0.047117032
0.059114896 0.068681024 -0.048075233 -0.01729583 -0.07523512 -0.08719962 -0.103858784 -0.082511924
0.08606252 -0.05752774 -0.116791464 0.012033104 -0.015125388 0.10420646 -0.0006787633 -0.004781279
00000000: 9cf6 a1bd f504 1fbd a793 803d 4e3d 083e
00000010: 644a 04bd dc47 8f3d e19e 76bd c035 76bd
00000020: 7df5 89bd fed1 65bd c045 a43d 9757 be3d
00000030: b89b 053d 6145 a0bd 37ab 093e fdd2 d9bd
00000040: f45e b73d 1b14 053e 5a4c ab3c fc9c 053e
00000050: 621a 833d 86ca abbd 0a2a babc fe9a da3d
00000060: 0cde a03d 94d2 ac3d a410 893d c873 8f3c
00000070: dc76 953c 34e6 023d e043 d53d 65ec 8cbd
00000080: e08d c8bd 1325 a93d ab29 e23d 10f7 e6bd
00000090: a728 bebd a27f 95bd 0ab0 ed3c 64bd 3c3b
000000a0: b132 89bd 5f77 afbd 38d2 fbbc 061b f9bc
000000b0: 284a 8cbd 7b64 9fbd c5f8 babc 8d07 d43d
000000c0: bca8 3ebd 6329 b43d deb1 913d 0562 763b
000000d0: 22da ab3d 7089 b73c d26e 96bd 76b7 0a3d
000000e0: 4c6a b9bd 6556 c8bd 7a8f 5b3d e6a2 be3b
000000f0: 676a 543d 0906 f13c bb13 0d3d 3cee 843d
00000100: 27b2 87bc 53ae 3e3d 5cd2 313d d2e0 23bc
00000110: b1ca 89bd fe54 bd3d 2482 febb 1013 28bc
00000120: f3f0 26bd 57fd 35bd 1088 eabd 1677 54bc
00000130: 3b6d 5c3d 3f20 bebd 4349 09bc 95f5 f5bc
00000140: c1b2 b5bd 5bd7 6d3d f028 883c b43e 113e
00000150: c998 973d 04eb 053e dfdf 753d 420a 8d3d
00000160: ffd1 c2bb f9a0 343d 9f40 753c 79d2 bebc
00000170: cfd1 8c3c 60ca 993d 3a0c b93b 67a1 b83d
00000180: 6dae c3bd 226f b23d d06a 483c 42ea adbb
00000190: 017f bb3c 10bc a0bd afb1 31bd 37a8 c1bc
000001a0: 91fa afbd 4f8a 0a3e 2287 50bc cc01 ab3c
000001b0: 0bc3 80bd 6103 8f3d 8961 0b3e e4a9 00bd
000001c0: bc22 653d 7eef 0d3e 537f d9bc f26a d43d
000001d0: 762c 0a3e f433 173e 81b2 e13d 8e39 3bbd
000001e0: dd92 fc3d da54 db3d 68f7 d9bc 45e1 71bd
000001f0: 7263 56bd ff56 80bd 43bc 3e3d 4287 9cbd
00000200: 7943 ebbc be92 153e f3de cd3c 5cb4 dbbd
00000210: 53ff ebbd 4f2f 083e 5e47 1a3d 6b8c 073e
00000220: a7b4 103e aeaa 8d3d 87ea 24bd 2be9 acbc
00000230: ad43 0e3d 0c72 d1bd 614d f3bc 509b cf3d
00000240: e405 babc bda3 19be 77f6 06bc 389b 903c
00000250: bd2c 773d 0ea3 103b cc1d 04be c68e 99bd
00000260: f32c a5bd dc3b bc3d 3854 f3bd 523c 5c3c
00000270: 6940 b83d e9c0 34bd 6c4e 4ebd f61c 853d
00000280: 669c 17be ce6d d33d 520e fc3c 1d7d 75bd
00000290: 4d90 58bd 5e6a d0bd ce68 833c d0a7 cbbd
000002a0: 3eeb c93d 0f23 e83c db2a 1a3d a5b6 98bd
000002b0: ebac 0c3e 37e3 ee3d 84f9 be3c 1985 f73d
000002c0: 8722 9ebd bc0c 823d 6d11 89bd 15e8 cd3d
000002d0: 0bb0 073e 4e11 0abe 0b3f 15bd 4141 4ebd
000002e0: 99a9 f6bd 1f82 29bd 40ef 5e3b c663 1b3c
000002f0: d308 44bd 081b 203d d30d 80bd 440b c5bd
00000300: 454d 1a3b 17c8 393d c794 d03d 8cea 993d
00000310: 2858 c33d 2051 51bc e2f1 a3bd 6b69 d93d
00000320: 99f9 0d3e 2850 c63d a45f bebd d99b e4bc
00000330: 7b69 3bbd bc79 39bd 72dc 83bd 3748 943d
00000340: 0c95 88bd 8be8 a3bd f91b 0c3e 2331 123e
00000350: 6958 7ebd 0677 a4bd c635 b0bb 9aab d43d
00000360: 34ac ed3c a7ea a8bc 15ab 713d e0c0 1abd
00000370: 0c51 c7bd 9bb7 0e3d 4408 52bc ba19 ae3d
00000380: 5d0c 003e aaf5 843d 6101 d73d 476c 873d
00000390: 417d 86bd 51de 65bc 0c37 0d3e 8d1c cc3d
000003a0: 6760 d83c 1f65 353c 5c20 df3d dc64 d73d
000003b0: 845c ffb9 c8c0 f4bb 1c8d ee3d cafd 40bd
000003c0: 7622 723d a3a8 8c3d 89ea 44bd fcaf 8dbc
000003d0: df14 9abd b795 b2bd eab3 d4bd 03fc a8bd
000003e0: 8c41 b03d 35a2 6bbd 5d30 efbd 7f26 453c
000003f0: 7ad0 77bc 326a d53d 09ef 31ba 46ac 9cbb
